Model
Model: "model_51"
________________________________________________________________________________
Layer (type)              Output Shape      Param #  Connected to               
================================================================================
conv_input (InputLayer)   [(None, 201, 4)]  0                                   
________________________________________________________________________________
conv_motif (Conv1D)       (None, 174, 300)  33900    conv_input[0][0]           
________________________________________________________________________________
average_motif_signal (Ave (None, 8, 300)    0        conv_motif[0][0]           
________________________________________________________________________________
max_pooling_for_motif (Gl (None, 300)       0        average_motif_signal[0][0] 
________________________________________________________________________________
atac_input (InputLayer)   [(None, 1)]       0                                   
________________________________________________________________________________
concatenate_51 (Concatena (None, 301)       0        max_pooling_for_motif[0][0]
                                                     atac_input[0][0]           
________________________________________________________________________________
dropout_51 (Dropout)      (None, 301)       0        concatenate_51[0][0]       
________________________________________________________________________________
dense_102 (Dense)         (None, 100)       30200    dropout_51[0][0]           
________________________________________________________________________________
dense_103 (Dense)         (None, 1)         101      dense_102[0][0]            
________________________________________________________________________________
main_output (Activation)  (None, 1)         0        dense_103[0][0]            
================================================================================
Total params: 64,201
Trainable params: 64,201
Non-trainable params: 0
________________________________________________________________________________


