Model
Model: "model"
________________________________________________________________________________
Layer (type)                        Output Shape                    Param #     
================================================================================
conv_input (InputLayer)             [(None, 201, 4)]                0           
________________________________________________________________________________
conv_motif (Conv1D)                 (None, 182, 800)                64800       
________________________________________________________________________________
average_motif_signal (AveragePoolin (None, 18, 800)                 0           
________________________________________________________________________________
max_pooling_for_motif (GlobalMaxPoo (None, 800)                     0           
________________________________________________________________________________
dropout (Dropout)                   (None, 800)                     0           
________________________________________________________________________________
dense (Dense)                       (None, 100)                     80100       
________________________________________________________________________________
dense_1 (Dense)                     (None, 1)                       101         
________________________________________________________________________________
main_output (Activation)            (None, 1)                       0           
================================================================================
Total params: 145,001
Trainable params: 145,001
Non-trainable params: 0
________________________________________________________________________________


