Model
Model: "model_52"
________________________________________________________________________________
Layer (type)                        Output Shape                    Param #     
================================================================================
conv_input (InputLayer)             [(None, 201, 4)]                0           
________________________________________________________________________________
conv_motif (Conv1D)                 (None, 174, 300)                33900       
________________________________________________________________________________
average_motif_signal (AveragePoolin (None, 8, 300)                  0           
________________________________________________________________________________
max_pooling_for_motif (GlobalMaxPoo (None, 300)                     0           
________________________________________________________________________________
dropout_52 (Dropout)                (None, 300)                     0           
________________________________________________________________________________
dense_104 (Dense)                   (None, 100)                     30100       
________________________________________________________________________________
dense_105 (Dense)                   (None, 1)                       101         
________________________________________________________________________________
main_output (Activation)            (None, 1)                       0           
================================================================================
Total params: 64,101
Trainable params: 64,101
Non-trainable params: 0
________________________________________________________________________________


