Model
Model: "model_5"
________________________________________________________________________________
Layer (type)                        Output Shape                    Param #     
================================================================================
conv_input (InputLayer)             [(None, 201, 4)]                0           
________________________________________________________________________________
conv_motif (Conv1D)                 (None, 182, 500)                40500       
________________________________________________________________________________
average_motif_signal (AveragePoolin (None, 11, 500)                 0           
________________________________________________________________________________
max_pooling_for_motif (GlobalMaxPoo (None, 500)                     0           
________________________________________________________________________________
dropout_5 (Dropout)                 (None, 500)                     0           
________________________________________________________________________________
dense_10 (Dense)                    (None, 100)                     50100       
________________________________________________________________________________
dense_11 (Dense)                    (None, 1)                       101         
________________________________________________________________________________
main_output (Activation)            (None, 1)                       0           
================================================================================
Total params: 90,701
Trainable params: 90,701
Non-trainable params: 0
________________________________________________________________________________


